water_potability_model_fp16.tflite (tflite, 60548 bytes, 9 tensors)

WaterPotabilityDNN_v2/activation/Relu;WaterPotabilityDNN_v2/batch_normalization/batchnorm/add_1 f2 [128]
0	0x9ebf	-0.006588
1	0xad7c	-0.0857
2	0xb1cf	-0.1815
3	0xa48e	-0.01779
4	0xae27	-0.0961
5	0xb164	-0.1685
6	0x25eb	0.02312
7	0xb1ff	-0.1874
8	0xad73	-0.08514
9	0xa4e5	-0.01912
10	0xb0eb	-0.1537
11	0x2e7a	0.1012
12	0xb04d	-0.1344
13	0xaed6	-0.1068
14	0xa861	-0.0342
15	0xa8e9	-0.03836
16	0x243e	0.01657
17	0x1385	0.000918
18	0xb111	-0.1583
19	0x26fd	0.0273
20	0xb106	-0.157
21	0xb1ff	-0.1874
22	0xa6b4	-0.02618
23	0xac2d	-0.06525
24	0xb0b1	-0.1466
25	0xb162	-0.1682
26	0xac3a	-0.06604
27	0xaf73	-0.1164
28	0xa542	-0.02054
29	0xa861	-0.0342
30	0xa003	-0.007835
31	0x2b50	0.05713
32	0xb17d	-0.1715
33	0xb166	-0.1687
34	0xa843	-0.0333
35	0xb023	-0.1293
36	0x2da1	0.08795
37	0xa309	-0.01374
38	0x2582	0.02151
39	0x2ab6	0.05243
40	0xada9	-0.08844
41	0xb300	-0.2188
42	0x2d5d	0.0838
43	0x25a9	0.02211
44	0xa457	-0.01695
45	0x2aa4	0.05188
46	0xa552	-0.02078
47	0xabe4	-0.06165
48	0xad77	-0.0854
49	0xb039	-0.132
50	0xa453	-0.01689
51	0xabc6	-0.06073
52	0xb049	-0.1339
53	0xb188	-0.1729
54	0x272f	0.02806
55	0xacb1	-0.0733
56	0x2cfc	0.0779
57	0xaccb	-0.0749
58	0xab7e	-0.05853
59	0xabd0	-0.06104
60	0xb058	-0.1357
61	0xb2df	-0.2147
62	0xb0bf	-0.1483
63	0xa9bf	-0.0449
64	0xa7f6	-0.0311
65	0xadbb	-0.08954
66	0x2e18	0.0952
67	0xb246	-0.196
68	0xb30c	-0.2202
69	0xb071	-0.1388
70	0xb1fa	-0.1868
71	0xb042	-0.133
72	0xaa02	-0.04694
73	0x16e1	0.001679
74	0x9793	-0.001849
75	0xb0a5	-0.1451
76	0xabb0	-0.06006
77	0xb11a	-0.1594
78	0xaa7b	-0.05063
79	0x21f9	0.011665
80	0x28a5	0.0363
81	0xaa92	-0.05133
82	0xb03f	-0.1327
83	0xb091	-0.1427
84	0x22bd	0.01316
85	0xac13	-0.06366
86	0xa454	-0.0169
87	0xac51	-0.06744
88	0x24c0	0.01855
89	0x2b17	0.0554
90	0xb127	-0.161
91	0xac99	-0.07184
92	0xb35a	-0.2297
93	0xaa93	-0.05136
94	0xac06	-0.06287
95	0xb02f	-0.1307
96	0xb1ff	-0.1874
97	0xa564	-0.02106
98	0x29b7	0.04465
99	0x9cce	-0.004692
100	0x2e5b	0.0993
101	0xb10e	-0.158
102	0x1834	0.002052
103	0xb0f0	-0.1543
104	0xaef5	-0.1087
105	0xaaa9	-0.05203
106	0x2e90	0.10254
107	0xae29	-0.09625
108	0xaf22	-0.11145
109	0xb084	-0.1411
110	0xabbd	-0.06046
111	0x241d	0.01607
112	0xb006	-0.1257
113	0xa528	-0.02014
114	0xaa67	-0.05002
115	0xadc4	-0.0901
116	0xaee8	-0.1079
117	0xb0f2	-0.1545
118	0xb10d	-0.1578
119	0xa505	-0.0196
120	0xb131	-0.1622
121	0x2489	0.01772
122	0xadbe	-0.0897
123	0xb151	-0.1661
124	0xac95	-0.0716
125	0xa7d5	-0.0306
126	0x9e60	-0.006226
127	0xb066	-0.1375

WaterPotabilityDNN_v2/activation_1/Relu;WaterPotabilityDNN_v2/batch_normalization_1/batchnorm/add_1 f2 [128]
0	0x32d4	0.2134
1	0xae72	-0.1007
2	0x3b0e	0.882
3	0x35c9	0.3616
4	0x39ce	0.7256
5	0x3a35	0.776
6	0x3901	0.6255
7	0x3c05	1.005
8	0x3b72	0.9307
9	0x381d	0.514
10	0x3701	0.4377
11	0xb09e	-0.1443
12	0x39a4	0.705
13	0xb6fb	-0.4363
14	0x38a3	0.5796
15	0x36aa	0.4165
16	0x3d3b	1.308
17	0x3af0	0.867
18	0x2f46	0.11365
19	0xbc30	-1.047
20	0x35e6	0.3687
21	0x38e4	0.6113
22	0xa8ed	-0.03848
23	0x34e3	0.3054
24	0x35a9	0.3538
25	0x91c6	-0.000705
26	0xb912	-0.634
27	0xb8e9	-0.614
28	0x3b05	0.8774
29	0xbbbf	-0.9683
30	0xb8bd	-0.5923
31	0x2490	0.01782
32	0x3a96	0.823
33	0xae5f	-0.09955
34	0x32de	0.2146
35	0x3bb7	0.9644
36	0x2677	0.02525
37	0x3cbe	1.186
38	0xb8c4	-0.5957
39	0xbbd7	-0.98
40	0x3184	0.1724
41	0xa893	-0.03574
42	0x3835	0.526
43	0x390f	0.6323
44	0xbc5c	-1.09
45	0xb4c1	-0.297
46	0x3376	0.2332
47	0xa428	-0.01624
48	0xaca4	-0.0725
49	0xbe31	-1.548
50	0x3b85	0.94
51	0xb066	-0.1375
52	0x3134	0.1626
53	0x2e2a	0.0963
54	0x39b9	0.7153
55	0x3b28	0.8945
56	0x38b6	0.589
57	0x3910	0.633
58	0x2ef2	0.1085
59	0xb12d	-0.1617
60	0xb015	-0.1276
61	0xa62f	-0.02415
62	0xa61d	-0.02388
63	0x2ca2	0.0724
64	0x315a	0.1672
65	0xb712	-0.442
66	0xb338	-0.2256
67	0x28ae	0.03656
68	0xb279	-0.2023
69	0xb82a	-0.5205
70	0x3980	0.6875
71	0x3c19	1.024
72	0x3aa1	0.8286
73	0xa811	-0.03177
74	0xbaea	-0.8643
75	0x32f3	0.2172
76	0x3285	0.2037
77	0x3c91	1.142
78	0x3c61	1.095
79	0x3a9a	0.825
80	0x3a67	0.8003
81	0x3a3f	0.781
82	0x36ff	0.4373
83	0x38d7	0.605
84	0x2fea	0.12366
85	0xb484	-0.2822
86	0xb1c5	-0.1803
87	0x307b	0.14
88	0x36f9	0.4358
89	0x3231	0.1935
90	0x3820	0.5156
91	0x39c0	0.7188
92	0xba2c	-0.7715
93	0x3c2a	1.041
94	0x9828	-0.00203
95	0x2ec6	0.10583
96	0xbc8c	-1.137
97	0xa947	-0.04123
98	0x2e58	0.0991
99	0x34f4	0.3096
100	0x354d	0.3313
101	0xa422	-0.01614
102	0xbc51	-1.079
103	0x3a59	0.7935
104	0xb9ad	-0.7095
105	0x37df	0.492
106	0x1930	0.002533
107	0x3b88	0.9414
108	0x3653	0.3953
109	0x3675	0.4036
110	0xb82c	-0.5215
111	0x28ec	0.03845
112	0x396d	0.678
113	0xa60b	-0.0236
114	0xb5ca	-0.3618
115	0xb56d	-0.339
116	0x3991	0.696
117	0xb8c1	-0.594
118	0xb78a	-0.4712
119	0xb838	-0.5273
120	0x2746	0.02841
121	0xbd54	-1.332
122	0x3a4a	0.786
123	0xbc1e	-1.029
124	0x39a5	0.7056
125	0x31fa	0.1868
126	0xbd3e	-1.311
127	0x30d3	0.1508

WaterPotabilityDNN_v2/activation_2/Relu;WaterPotabilityDNN_v2/batch_normalization_2/batchnorm/add_1 f2 [64]
0	0x3ab5	0.8384
1	0x3394	0.2368
2	0x30ab	0.1459
3	0xba36	-0.7764
4	0x2fdf	0.123
5	0x319c	0.1753
6	0xb113	-0.1586
7	0x338d	0.236
8	0x36e2	0.4302
9	0x3679	0.4045
10	0x2e14	0.095
11	0x34db	0.3035
12	0x3245	0.1959
13	0x2d0a	0.07874
14	0x30d4	0.1509
15	0x3580	0.3438
16	0xac51	-0.06744
17	0xa8d7	-0.0378
18	0x384d	0.5376
19	0x30a1	0.1447
20	0xac68	-0.06885
21	0x36ef	0.4333
22	0x32b0	0.209
23	0xae96	-0.1029
24	0x35c0	0.3594
25	0xb814	-0.51
26	0x310d	0.1578
27	0x29a2	0.044
28	0xadde	-0.0917
29	0x306b	0.1381
30	0x1b03	0.003424
31	0xb45f	-0.2732
32	0x3544	0.329
33	0x36f9	0.4358
34	0x2a3c	0.0487
35	0x2742	0.02835
36	0x3648	0.3926
37	0x34bb	0.2957
38	0x33cc	0.2437
39	0x27be	0.03024
40	0x382e	0.5225
41	0x3269	0.2003
42	0xb66e	-0.4019
43	0xaff9	-0.1246
44	0x3559	0.3342
45	0x374d	0.4563
46	0x35aa	0.354
47	0x3131	0.1622
48	0xb085	-0.1412
49	0x3209	0.1886
50	0x2cc4	0.07446
51	0x2916	0.03973
52	0x36bb	0.4207
53	0x2c68	0.06885
54	0x3226	0.1921
55	0x34e0	0.3047
56	0x3301	0.2189
57	0xb8d0	-0.6016
58	0xb44f	-0.2693
59	0x2e40	0.09766
60	0x3601	0.3752
61	0x378e	0.4722
62	0x2b3c	0.05652
63	0xb825	-0.518

WaterPotabilityDNN_v2/batch_normalization/batchnorm/mul_1 f2 [128, 4]
0	0x3993	0.697
1	0x3535	0.3254
2	0x3aac	0.834
3	0x2481	0.0176
4	0x3c3b	1.058
5	0xa08b	-0.00887
6	0x2a86	0.05096
7	0x29bd	0.04483
8	0xbc67	-1.101
9	0x3047	0.1337
10	0x311a	0.1594
11	0x2e6f	0.1005
12	0x3b64	0.924
13	0x35df	0.367
14	0x362a	0.3853
15	0x3741	0.4534
16	0x3769	0.4631
17	0xbb86	-0.9404
18	0x30fa	0.1555
19	0x39fb	0.7476
20	0xbc2e	-1.045
21	0x9817	-0.001997
22	0x2686	0.02548
23	0x2dc0	0.08984
24	0x37e2	0.4927
25	0x3d38	1.305
26	0x33eb	0.2474
27	0x2bbb	0.0604
28	0xb9ae	-0.71
29	0xb0bb	-0.1478
30	0x3122	0.1604
31	0x3b0b	0.8804
32	0x3947	0.6597
33	0x331e	0.2224
34	0x3adf	0.859
35	0x32be	0.2107
36	0xb0b6	-0.1472
37	0x38da	0.6064
38	0xbc33	-1.05
39	0xb059	-0.1359
40	0xbb8e	-0.9443
41	0x3500	0.3125
42	0x338a	0.2356
43	0x34ee	0.308
44	0xb42d	-0.261
45	0x2baa	0.05988
46	0xb821	-0.516
47	0xbc95	-1.1455
48	0x3482	0.2817
49	0x3835	0.526
50	0x3c33	1.05
51	0x3486	0.2827
52	0xb82e	-0.5225
53	0x3a9c	0.826
54	0xb24b	-0.1967
55	0x390e	0.632
56	0xb672	-0.4028
57	0xba89	-0.817
58	0x347b	0.28
59	0xba18	-0.7617
60	0x3a39	0.778
61	0xb020	-0.1289
62	0xb180	-0.1719
63	0x39b2	0.712
64	0xa1c4	-0.01126
65	0xb459	-0.2717
66	0xac5f	-0.0683
67	0xbc7d	-1.122
68	0x3b97	0.9487
69	0xb260	-0.1992
70	0xad93	-0.0871
71	0x37ca	0.4868
72	0xbc47	-1.069
73	0x320a	0.1887
74	0x3178	0.1709
75	0x2c6f	0.0693
76	0x3aa8	0.832
77	0xb324	-0.2231
78	0x37bf	0.4841
79	0xb386	-0.2351
80	0xbc28	-1.039
81	0x325d	0.1989
82	0x2d26	0.08044
83	0x31e1	0.1837
84	0xba26	-0.7686
85	0x3477	0.279
86	0x3897	0.5737
87	0x349f	0.2888
88	0x3aa2	0.829
89	0x3987	0.691
90	0xb726	-0.4468
91	0xafbd	-0.1209
92	0x39da	0.7314
93	0xb83f	-0.531
94	0xa075	-0.008705
95	0x3a00	0.75
96	0xbb09	-0.8794
97	0xa6c5	-0.02644
98	0xb257	-0.1981
99	0x38e8	0.6133
100	0xbc09	-1.009
101	0x34b4	0.294
102	0x34ea	0.3071
103	0x34db	0.3035
104	0x36e5	0.431
105	0xbafe	-0.874
106	0x3835	0.526
107	0xb487	-0.283
108	0x33cf	0.244
109	0x39df	0.734
110	0x3823	0.517
111	0x3ab5	0.8384
112	0x36b3	0.4187
113	0x3442	0.266
114	0x3b3e	0.9053
115	0x3887	0.566
116	0xb2fe	-0.2185
117	0xb8d7	-0.605
118	0xbc45	-1.067
119	0x26d7	0.02672
120	0x3906	0.628
121	0x33e3	0.2465
122	0x3bd9	0.981
123	0x2a2d	0.04825
124	0xb048	-0.1338
125	0xbcff	-1.249
126	0xb12c	-0.1616
127	0xb6ab	-0.4167
128	0xbc4c	-1.074
129	0x2d66	0.08435
130	0x2a0e	0.0473
131	0x2a23	0.04794
132	0xb9f3	-0.7437
133	0xb5e6	-0.3687
134	0xb0be	-0.1482
135	0x39b4	0.713
136	0x319b	0.1752
137	0x3afa	0.872
138	0xbbc3	-0.97
139	0xb249	-0.1964
140	0xba25	-0.768
141	0x2e42	0.0978
142	0x3a4b	0.7866
143	0x3401	0.2502
144	0x38b8	0.59
145	0x33a0	0.2383
146	0xb536	-0.3257
147	0xbb69	-0.9263
148	0x3b7c	0.9355
149	0x3080	0.1406
150	0x3808	0.504
151	0x3539	0.3264
152	0x3b00	0.875
153	0xb153	-0.1664
154	0x9882	-0.002201
155	0x3779	0.467
156	0xb2cd	-0.2125
157	0xb82e	-0.5225
158	0xb966	-0.675
159	0xbb17	-0.886
160	0xb8a5	-0.5806
161	0xaac8	-0.05298
162	0xba25	-0.768
163	0xb586	-0.3452
164	0xbb12	-0.884
165	0x3468	0.2754
166	0x373e	0.4526
167	0x33c9	0.2433
168	0xb013	-0.1273
169	0xb1b6	-0.1785
170	0xa6cf	-0.0266
171	0xbd38	-1.305
172	0xaf35	-0.1126
173	0xbbf3	-0.9937
174	0xb018	-0.1279
175	0xbacc	-0.8496
176	0x317d	0.1715
177	0xbce6	-1.225
178	0xb3e5	-0.2467
179	0x346b	0.2761
180	0xb432	-0.2622
181	0xbca6	-1.162
182	0xb82c	-0.5215
183	0xb6c7	-0.4236
184	0x385d	0.5454
185	0xb6bc	-0.421
186	0xb912	-0.634
187	0x3870	0.5547
188	0x3b43	0.9077
189	0x38a8	0.582
190	0x35b3	0.3562
191	0x32ca	0.2122
192	0x3741	0.4534
193	0xbb70	-0.9297
194	0x2b16	0.05536
195	0x39e0	0.7344
196	0xba4e	-0.788
197	0x3576	0.3413
198	0xb63e	-0.3901
199	0x37b5	0.4817
200	0xb7aa	-0.479
201	0xb8d5	-0.604
202	0x35c4	0.3604
203	0xbb08	-0.879
204	0x3945	0.6587
205	0xb871	-0.555
206	0xb566	-0.3374
207	0x39cd	0.725
208	0xb94c	-0.662
209	0xb27b	-0.2025
210	0xb208	-0.1885
211	0x3b56	0.917
212	0xba36	-0.7764
213	0xae51	-0.0987
214	0xb317	-0.2216
215	0x3859	0.5435
216	0x29db	0.04575
217	0xb596	-0.349
218	0x303e	0.1326
219	0xbcce	-1.201
220	0x3c3b	1.058
221	0x2dd1	0.0909
222	0x2c66	0.0687
223	0x31aa	0.177
224	0x3624	0.3838
225	0x39f5	0.7446
226	0x1fc2	0.007576
227	0xbbf7	-0.9956
228	0x3c56	1.084
229	0x3558	0.334
230	0x333d	0.2262
231	0x3109	0.1573
232	0x3c3e	1.061
233	0x3225	0.192
234	0x327e	0.2029
235	0x2ab6	0.05243
236	0x38ce	0.6006
237	0x3412	0.2544
238	0x3b34	0.9004
239	0x34d6	0.3022
240	0xbb52	-0.915
241	0x2bd2	0.0611
242	0x2c2d	0.06525
243	0x387d	0.561
244	0xbb63	-0.9233
245	0x34a7	0.2908
246	0x353c	0.3271
247	0x31f6	0.1863
248	0xb630	-0.3867
249	0xb9fb	-0.7476
250	0x3adf	0.859
251	0x3920	0.6406
252	0xb9d6	-0.7295
253	0xba8b	-0.818
254	0x3563	0.3367
255	0xb84a	-0.536

WaterPotabilityDNN_v2/batch_normalization_1/batchnorm/mul_1 f2 [128, 128]
0	0xa67b	-0.02531
1	0xa9ea	-0.0462
2	0xae66	-0.1
3	0xada1	-0.08795
4	0xa3c9	-0.015205
5	0xa02c	-0.00815
6	0x3014	0.1274
7	0x26f3	0.02715
8	0x2730	0.02808
9	0x2c60	0.06836
10	0xabe8	-0.06177
11	0x2d80	0.08594
12	0x2d44	0.0823
13	0x22e3	0.01345
14	0x2851	0.03372
15	0x2cb7	0.07367
16	0x2f7e	0.11707
17	0xaf39	-0.11285
18	0xb04d	-0.1344
19	0x9d4b	-0.00517
20	0xb06e	-0.1384
21	0xab62	-0.05768
22	0xae5e	-0.0995
23	0xad2d	-0.0809
24	0xae81	-0.1016
25	0xae07	-0.0942
26	0x2d0a	0.07874
27	0x2c57	0.0678
28	0xa9c1	-0.04495
29	0x2d8b	0.0866
30	0x274d	0.02852
31	0x29ca	0.04523
32	0xaa03	-0.04697
33	0x2b0f	0.05515
34	0xabfe	-0.06244
35	0xa552	-0.02078
36	0x2d02	0.07825
37	0xafca	-0.1217
38	0x2818	0.03198
39	0x2942	0.04108
40	0x2434	0.01642
41	0x146b	0.001079
42	0x19ae	0.002773
43	0x2d72	0.0851
44	0x2b3f	0.0566
45	0x197e	0.002682
46	0x2a53	0.0494
47	0xab9f	-0.05954
48	0xaac8	-0.05298
49	0x2919	0.03983
50	0x2553	0.0208
51	0x2bb2	0.06012
52	0x2d73	0.08514
53	0x252a	0.02017
54	0x2d68	0.0845
55	0xaf7b	-0.1169
56	0xab60	-0.05762
57	0xa84d	-0.0336
58	0xadf2	-0.0929
59	0x22b6	0.01311
60	0xa99d	-0.04385
61	0xb022	-0.1292
62	0x2ec3	0.10565
63	0x2d22	0.0802
64	0xaabd	-0.05264
65	0xadf5	-0.0931
66	0xa9c8	-0.04517
67	0xaec8	-0.10596
68	0xac9c	-0.072
69	0x9019	-0.0005
70	0xa90e	-0.0395
71	0xa6a8	-0.026
72	0x21b6	0.011154
73	0x988e	-0.002224
74	0xa971	-0.0425
75	0xaa80	-0.05078
76	0x1ef3	0.006786
77	0xa29e	-0.012924
78	0x1407	0.000983
79	0x299a	0.04376
80	0x2ee1	0.1075
81	0xb0b4	-0.147
82	0x2e8c	0.1023
83	0xb04a	-0.134
84	0xaade	-0.05365
85	0x28ba	0.03693
86	0x296c	0.04236
87	0xac08	-0.063
88	0xac59	-0.06793
89	0xa348	-0.01422
90	0x3061	0.1368
91	0x98ac	-0.002281
92	0x1e0b	0.0059
93	0x2e24	0.09595
94	0xaf7f	-0.1171
95	0xb03a	-0.1321
96	0xa915	-0.0397
97	0x2faf	0.12006
98	0x2a5d	0.0497
99	0x2cc4	0.07446
100	0xabd1	-0.06107
101	0xaedb	-0.1071
102	0x2dc8	0.09033
103	0xaf5c	-0.115
104	0xac2f	-0.06537
105	0x2902	0.03912
106	0xa090	-0.00891
107	0x2cb6	0.0736
108	0xa85f	-0.03415
109	0x273d	0.02827
110	0x13e8	0.000965
111	0x2872	0.03473
112	0x301f	0.1288
113	0x9819	-0.002
114	0x2d16	0.07947
115	0xa975	-0.04263
116	0x27a2	0.02982
117	0xaf7e	-0.11707
118	0x2d54	0.08325
119	0xb014	-0.1274
120	0xa752	-0.0286
121	0x2540	0.02051
122	0xa918	-0.0398
123	0xa189	-0.01081
124	0xa0b5	-0.00919
125	0xac80	-0.0703
126	0x29f2	0.04645
127	0xa5ee	-0.02316
128	0xafca	-0.1217
129	0xb20d	-0.1891
130	0x3114	0.1587
131	0x2e29	0.09625
132	0xaeeb	-0.1081
133	0xaf3b	-0.113
134	0x3118	0.1592
135	0xae34	-0.0969
136	0x2cba	0.07385
137	0xaf8a	-0.1178
138	0x254b	0.02068
139	0x3082	0.1409
140	0xaae3	-0.0538
141	0x1fe9	0.007725
142	0x2ccd	0.075
143	0xa6e7	-0.02696
144	0x2991	0.0435
145	0x1932	0.002537
146	0x2e27	0.0961
147	0xb128	-0.1611
148	0x2cf4	0.0774
149	0x29a5	0.0441
150	0x314a	0.1653
151	0xae64	-0.09985
152	0xb1c0	-0.1797
153	0xa593	-0.02177
154	0xb0db	-0.1517
155	0x2d74	0.0852
156	0xad67	-0.0844
157	0x283b	0.03305
158	0xb195	-0.1744
159	0xa63a	-0.02432
160	0xb0f2	-0.1545
161	0x2b43	0.05673
162	0x2fee	0.1239
163	0xb05b	-0.1361
164	0x302f	0.1307
165	0x2e73	0.10077
166	0x1f43	0.00709
167	0xad7c	-0.0857
168	0xa605	-0.02351
169	0x3030	0.1309
170	0xaf99	-0.1187
171	0x3060	0.1367
172	0x194c	0.002586
173	0xa9e5	-0.04605
174	0xb20c	-0.189
175	0xaf6a	-0.11584
176	0xa3d0	-0.01526
177	0x3233	0.1937
178	0xb0de	-0.1521
179	0xb1fa	-0.1868
180	0x2f08	0.10986
181	0xafdd	-0.12286
182	0x2e2d	0.0965
183	0x2eeb	0.1081
184	0x2dab	0.08856
185	0xa657	-0.02477
186	0x29e7	0.0461
187	0xac52	-0.0675
188	0xa9b9	-0.0447
189	0x277a	0.0292
190	0x2e08	0.09424
191	0xa97a	-0.0428
192	0x2e3d	0.0975
193	0x3092	0.1428
194	0x3159	0.1671
195	0x2a39	0.0486
196	0x2e30	0.0967
197	0x31c0	0.1797
198	0xabba	-0.06036
199	0xa80b	-0.0316
200	0x2f93	0.11835
201	0x2c17	0.0639
202	0x2a1f	0.04782
203	0xadd0	-0.0908
204	0xb024	-0.1294
205	0xb0ad	-0.1461
206	0x3130	0.1621
207	0x3010	0.127
208	0xad9a	-0.0875
209	0xad76	-0.0853
210	0xae30	-0.0967
211	0xada2	-0.088
212	0x1bb5	0.003763
213	0xa3d7	-0.01531
214	0x211f	0.01
215	0xa860	-0.03418
216	0x2938	0.04077
217	0x21cd	0.01133
218	0x2b6e	0.05804
219	0x1ebe	0.006584
220	0x9854	-0.002113
221	0x322c	0.1929
222	0xad74	-0.0852
223	0xaf06	-0.10974
224	0xaf82	-0.1173
225	0xaf1c	-0.1111
226	0x322f	0.1932
227	0x3018	0.1279
228	0xad42	-0.08215
229	0x2a71	0.05032
230	0x30c7	0.1493
231	0x2876	0.03485
232	0x26c2	0.0264
233	0x28aa	0.03644
234	0x9d76	-0.005333
235	0x269c	0.02582
236	0x239c	0.01486
237	0x219c	0.010956
238	0xab08	-0.05493
239	0xa51c	-0.01996
240	0x2e1e	0.0956
241	0x3115	0.1588
242	0xae87	-0.102
243	0xaf47	-0.1137
244	0xaf0b	-0.11005
245	0x3049	0.1339
246	0xad2f	-0.081
247	0xab8d	-0.059
248	0x2e1f	0.09564
249	0xb079	-0.1398
250	0x9c23	-0.00404
251	0xae66	-0.1
252	0xaaa2	-0.05182
253	0x319f	0.1757
254	0x2b39	0.05643
255	0xad83	-0.0861

WaterPotabilityDNN_v2/batch_normalization_2/batchnorm/mul_1 f2 [64, 128]
0	0x2b45	0.0568
1	0xadb0	-0.08887
2	0xa4bc	-0.0185
3	0xae4f	-0.0986
4	0xae2a	-0.0963
5	0x2eaf	0.10443
6	0xac54	-0.0676
7	0x2b2f	0.05612
8	0xa448	-0.01672
9	0x9d75	-0.00533
10	0x2842	0.03326
11	0x2ee3	0.1076
12	0xb092	-0.1428
13	0xaaed	-0.0541
14	0x2803	0.03134
15	0xa95c	-0.04187
16	0xaac7	-0.05295
17	0xa9e8	-0.04614
18	0x2abe	0.05267
19	0xae50	-0.09863
20	0x2838	0.03296
21	0xaea1	-0.1036
22	0x2d77	0.0854
23	0x2c98	0.0718
24	0x2ab2	0.0523
25	0xae90	-0.10254
26	0xaeeb	-0.1081
27	0xabb1	-0.0601
28	0x2b9c	0.05945
29	0xb005	-0.1256
30	0xaca6	-0.07263
31	0x29f1	0.04642
32	0x3103	0.1566
33	0x1df0	0.0058
34	0xa89e	-0.03607
35	0xad17	-0.0795
36	0x2b32	0.0562
37	0x2d71	0.085
38	0xaebc	-0.1052
39	0xa474	-0.0174
40	0xacf9	-0.0777
41	0x2b5c	0.0575
42	0x30c7	0.1493
43	0xad32	-0.0812
44	0xaf78	-0.1167
45	0xaf39	-0.11285
46	0xad77	-0.0854
47	0x2c31	0.0655
48	0xa94f	-0.04147
49	0xa378	-0.01459
50	0x2f01	0.10944
51	0xae17	-0.09515
52	0xa6a3	-0.02592
53	0xb003	-0.1254
54	0xae04	-0.094
55	0xa9f7	-0.0466
56	0xaf87	-0.1176
57	0xac27	-0.0649
58	0xab7c	-0.05847
59	0xa98e	-0.0434
60	0x2e73	0.10077
61	0x2cea	0.0768
62	0x2a4f	0.0493
63	0xac66	-0.0687
64	0x2de6	0.09216
65	0xaf24	-0.1116
66	0xb01e	-0.1287
67	0x2ce9	0.0767
68	0x2e75	0.1009
69	0x1655	0.001546
70	0x9ead	-0.00652
71	0xa856	-0.03387
72	0x2aee	0.05414
73	0x2417	0.01598
74	0xaa92	-0.05133
75	0xac5d	-0.0682
76	0xad2e	-0.08093
77	0xac94	-0.07153
78	0x288d	0.03555
79	0xaaf2	-0.05426
80	0x3030	0.1309
81	0xaf11	-0.1104
82	0xadb4	-0.0891
83	0x2c51	0.06744
84	0xa575	-0.02132
85	0xac58	-0.0679
86	0xac27	-0.0649
87	0xae4a	-0.09827
88	0xb08f	-0.1425
89	0xa413	-0.01591
90	0x2ee4	0.10767
91	0xa89f	-0.0361
92	0xa9fc	-0.04675
93	0x2d22	0.0802
94	0xaa23	-0.04794
95	0x2848	0.03345
96	0xac1c	-0.0642
97	0x2cbb	0.0739
98	0x25d8	0.02283
99	0x26c3	0.02641
100	0x2e41	0.0977
101	0xaa2d	-0.04825
102	0xb0c8	-0.1494
103	0x2a21	0.04788
104	0xac75	-0.06964
105	0xa5f1	-0.02321
106	0x2ff8	0.1245
107	0x1e13	0.00593
108	0xb0eb	-0.1537
109	0xa768	-0.02893
110	0xa146	-0.0103
111	0xaa87	-0.051
112	0xa7cd	-0.03047
113	0x2da9	0.08844
114	0x2d2a	0.0807
115	0xb093	-0.143
116	0xa9dd	-0.0458
117	0x9d76	-0.005333
118	0x27f3	0.03105
119	0x2716	0.02768
120	0xade2	-0.0919
121	0xaff2	-0.12415
122	0x951c	-0.001247
123	0xafe1	-0.1231
124	0xaca3	-0.07245
125	0x2cfc	0.0779
126	0xad71	-0.085
127	0xacae	-0.0731
128	0x2aa1	0.0518
129	0xaac5	-0.0529
130	0xa7f6	-0.0311
131	0x1d60	0.00525
132	0xac7e	-0.0702
133	0xadaa	-0.0885
134	0xa9c8	-0.04517
135	0x28fc	0.03894
136	0x9f0f	-0.006893
137	0xad17	-0.0795
138	0x2aee	0.05414
139	0x300d	0.1266
140	0xa9a6	-0.04413
141	0x2a21	0.04788
142	0x9cec	-0.004807
143	0x2cbc	0.074
144	0xaa04	-0.047
145	0xa964	-0.0421
146	0x2e3a	0.0973
147	0x9faf	-0.007504
148	0xac48	-0.0669
149	0xab6d	-0.058
150	0xabce	-0.06097
151	0x2b32	0.0562
152	0x2dfc	0.0935
153	0x2168	0.01056
154	0x2bf7	0.06223
155	0xa6df	-0.02684
156	0xa539	-0.0204
157	0xa6a8	-0.026
158	0x2da8	0.0884
159	0xaec6	-0.10583
160	0x2609	0.02357
161	0x2736	0.02817
162	0x298a	0.04327
163	0xad88	-0.0864
164	0x2a95	0.05142
165	0xaf48	-0.1138
166	0x2bb2	0.06012
167	0x2cf7	0.0776
168	0xa9e2	-0.04596
169	0xa4bc	-0.0185
170	0xac4e	-0.06726
171	0xacf5	-0.07745
172	0xa9e3	-0.046
173	0xad84	-0.0862
174	0xa663	-0.02495
175	0x2948	0.04126
176	0xad91	-0.087
177	0x9b52	-0.003574
178	0xa65e	-0.02487
179	0x2c18	0.06396
180	0xad0f	-0.07904
181	0xa841	-0.03323
182	0xa86a	-0.0345
183	0x2bad	0.05997
184	0xaa45	-0.04898
185	0x2cf4	0.0774
186	0x2449	0.01674
187	0xa9ee	-0.04633
188	0x1dde	0.00573
189	0x26a6	0.02597
190	0x293f	0.041
191	0xaca1	-0.0723
192	0x2a7d	0.0507
193	0xa54a	-0.02066
194	0x2e20	0.0957
195	0x1d67	0.005276
196	0xa54f	-0.02074
197	0x9f6a	-0.00724
198	0x2f08	0.10986
199	0x9c4c	-0.004196
200	0xa85f	-0.03415
201	0x0a82	0.0001986
202	0xa192	-0.01088
203	0xa754	-0.02863
204	0xafb6	-0.1205
205	0xaa81	-0.0508
206	0xac14	-0.0637
207	0xacff	-0.07806
208	0x291b	0.0399
209	0xa2d3	-0.01333
210	0x1eb4	0.006546
211	0xac58	-0.0679
212	0xa8dd	-0.038
213	0x2d46	0.0824
214	0x2db5	0.0892
215	0x23b4	0.015045
216	0x9e4d	-0.006153
217	0x2dc1	0.0899
218	0xa45e	-0.01706
219	0xa48b	-0.01775
220	0x296a	0.0423
221	0xad27	-0.0805
222	0xa571	-0.02126
223	0xae13	-0.0949
224	0xac0e	-0.06335
225	0x2b37	0.05637
226	0x2949	0.0413
227	0xa807	-0.03146
228	0x1223	0.000749
229	0x2be7	0.06174
230	0xad1d	-0.0799
231	0xaa4d	-0.04922
232	0x2da1	0.08795
233	0x2b1c	0.05554
234	0xaacc	-0.0531
235	0x2cfa	0.07776
236	0x2cf2	0.0773
237	0x29ce	0.04535
238	0x9cba	-0.004616
239	0x2ac1	0.05276
240	0x1f5f	0.0072
241	0xa17a	-0.0107
242	0x1456	0.001059
243	0x2929	0.0403
244	0xadc7	-0.0903
245	0x2bc5	0.0607
246	0x9b24	-0.003487
247	0xa41e	-0.01608
248	0xaaec	-0.05408
249	0xa089	-0.00886
250	0xa261	-0.01246
251	0xab86	-0.05878
252	0xa8c6	-0.0373
253	0xace3	-0.07635
254	0x1cee	0.004814
255	0x2ba6	0.05975

WaterPotabilityDNN_v2/dense_3/BiasAdd/ReadVariableOp f2 [32]
0	0x939b	-0.0009284
1	0x9a03	-0.002935
2	0x2381	0.014656
3	0x2983	0.04306
4	0x2a20	0.04785
5	0x2a17	0.04758
6	0x9ead	-0.00652
7	0x9ee8	-0.006744
8	0xa175	-0.01066
9	0xa3f1	-0.01551
10	0x24f6	0.01938
11	0xac4e	-0.06726
12	0x2721	0.02785
13	0x24c6	0.01865
14	0x2475	0.01741
15	0x9b0c	-0.00344
16	0xa763	-0.02885
17	0xa970	-0.04248
18	0xa956	-0.0417
19	0xa35c	-0.01437
20	0xa3b7	-0.01507
21	0x98fa	-0.00243
22	0x21a5	0.011024
23	0x265f	0.02489
24	0x25c7	0.02257
25	0x9b4f	-0.003569
26	0x2976	0.04266
27	0xa17d	-0.01072
28	0xa9c0	-0.04492
29	0x98cb	-0.00234
30	0xaa3c	-0.0487
31	0x2657	0.02477

WaterPotabilityDNN_v2/dense_3/MatMul f2 [32, 64]
0	0x32eb	0.2162
1	0xa969	-0.04227
2	0x327a	0.2024
3	0x9d3c	-0.00511
4	0x148e	0.001112
5	0x25af	0.0222
6	0xb102	-0.1565
7	0x33df	0.246
8	0x32d2	0.2131
9	0x2d0b	0.0788
10	0x2c20	0.06445
11	0xa389	-0.01472
12	0xacda	-0.0758
13	0x31af	0.1776
14	0xb0e2	-0.1526
15	0x2ec8	0.10596
16	0xb409	-0.2522
17	0xa9b1	-0.04446
18	0xb40a	-0.2524
19	0xa781	-0.02931
20	0x30aa	0.1458
21	0xa15b	-0.01046
22	0x30c9	0.1495
23	0x30c9	0.1495
24	0x30a6	0.1453
25	0xb394	-0.2368
26	0xa65c	-0.02484
27	0x1c23	0.00404
28	0x33b2	0.2405
29	0x3043	0.1332
30	0xb516	-0.3179
31	0x251a	0.01993
32	0xaf67	-0.11566
33	0xb26e	-0.2009
34	0xaecd	-0.10626
35	0xac0d	-0.0633
36	0xaaf2	-0.05426
37	0x31bf	0.1796
38	0x1c16	0.00399
39	0xb401	-0.2502
40	0x2ebd	0.1053
41	0x3040	0.1328
42	0x31b9	0.1788
43	0x2d25	0.0804
44	0x3318	0.2217
45	0x33aa	0.2395
46	0x1fc0	0.00757
47	0x33c6	0.2429
48	0x21ce	0.01134
49	0xa856	-0.03387
50	0xb0d9	-0.1515
51	0xade5	-0.0921
52	0x3116	0.1589
53	0xb23f	-0.1952
54	0x2bcb	0.06088
55	0x3229	0.1925
56	0x3037	0.1317
57	0x3293	0.2054
58	0x9e08	-0.00589
59	0x2d2e	0.08093
60	0xa904	-0.03918
61	0x2ae3	0.0538
62	0xb11b	-0.1595
63	0xb36c	-0.2319
64	0xa7ee	-0.03098
65	0x2bc8	0.0608
66	0xb4b1	-0.2932
67	0x3362	0.2307
68	0xb38a	-0.2356
69	0x3108	0.1572
70	0xad5d	-0.0838
71	0x341d	0.257
72	0x2b5c	0.0575
73	0x321f	0.1913
74	0xb41a	-0.2563
75	0x3315	0.2213
76	0x2e35	0.097
77	0xb309	-0.2198
78	0xa1ce	-0.01134
79	0x2e37	0.0971
80	0xb471	-0.2776
81	0xb377	-0.2333
82	0xb243	-0.1957
83	0xaeef	-0.10834
84	0xa967	-0.0422
85	0xb1c1	-0.1798
86	0x3169	0.1691
87	0x2d2d	0.0809
88	0x2f03	0.10956
89	0xb40e	-0.2534
90	0x3226	0.1921
91	0x32f6	0.2175
92	0x30a7	0.1454
93	0xad72	-0.0851
94	0xb34d	-0.2281
95	0x2fef	0.12396
96	0x2f3f	0.1132
97	0x2fcb	0.12177
98	0x2e8d	0.10236
99	0x2bf7	0.06223
100	0xb444	-0.2666
101	0x1d8b	0.005413
102	0xb101	-0.1564
103	0x2d1a	0.0797
104	0xac4d	-0.0672
105	0x3005	0.1256
106	0xb02b	-0.1302
107	0xb430	-0.2617
108	0x30db	0.1517
109	0x2fb9	0.12067
110	0xb206	-0.1882
111	0xac20	-0.06445
112	0x310e	0.158
113	0xb429	-0.26
114	0x9f24	-0.006973
115	0x2fca	0.1217
116	0xb277	-0.202
117	0x20c6	0.00932
118	0xafc3	-0.1213
119	0xa870	-0.03467
120	0xb0fd	-0.1559
121	0xae54	-0.0989
122	0x31e2	0.1838
123	0x2ffd	0.1248
124	0x29c3	0.045
125	0xb262	-0.1995
126	0xab40	-0.05664
127	0xb222	-0.1917
128	0x2a80	0.05078
129	0x2924	0.04016
130	0xa58f	-0.02171
131	0x327d	0.2028
132	0xb16d	-0.1696
133	0x3196	0.1746
134	0x3116	0.1589
135	0x2fa9	0.1197
136	0x9e32	-0.00605
137	0x32ba	0.2102
138	0xb305	-0.2194
139	0x2db9	0.0894
140	0x32e5	0.2155
141	0xb139	-0.1632
142	0x3372	0.2327
143	0xa89c	-0.036
144	0xb395	-0.2369
145	0x9fe7	-0.007717
146	0xaa81	-0.0508
147	0xa938	-0.04077
148	0x1ca1	0.00452
149	0x30d4	0.1509
150	0xaf3f	-0.1132
151	0x328d	0.2047
152	0xb421	-0.258
153	0x3133	0.1625
154	0xaf27	-0.11176
155	0xa000	-0.007812
156	0xa921	-0.04007
157	0x2ca3	0.07245
158	0x3018	0.1279
159	0xafa7	-0.11957
160	0x304e	0.1345
161	0x2dd8	0.0913
162	0x3172	0.1702
163	0x2d28	0.08057
164	0x339f	0.2382
165	0x328c	0.2046
166	0xaeee	-0.1083
167	0x1c46	0.004173
168	0x2b6b	0.05795
169	0xa88c	-0.03552
170	0xb234	-0.1938
171	0x2dd1	0.0909
172	0x302c	0.1304
173	0x2643	0.02446
174	0xaacf	-0.0532
175	0xb2e4	-0.2153
176	0xa77b	-0.02922
177	0xacd1	-0.07526
178	0x31dd	0.1832
179	0xb304	-0.2192
180	0x3452	0.27
181	0x2467	0.0172
182	0x2dea	0.0924
183	0xad1a	-0.0797
184	0xb24c	-0.1968
185	0xac27	-0.0649
186	0x3332	0.2249
187	0xa955	-0.04166
188	0xb30b	-0.2201
189	0x2e5d	0.0994
190	0x30fa	0.1555
191	0xa51c	-0.01996
192	0x2d7f	0.0859
193	0x343e	0.2651
194	0x26da	0.02676
195	0xa736	-0.02817
196	0x291a	0.03986
197	0xb3f4	-0.2485
198	0xa44c	-0.01678
199	0xb084	-0.1411
200	0xad0c	-0.07886
201	0xb2a2	-0.2073
202	0xa8ae	-0.03656
203	0xa2b3	-0.013084
204	0xb09b	-0.1439
205	0x318b	0.1732
206	0x2ecb	0.10614
207	0xa97a	-0.0428
208	0x30fb	0.1556
209	0xaa2e	-0.04828
210	0x3374	0.2329
211	0xb000	-0.125
212	0xab6b	-0.05795
213	0x3442	0.266
214	0x334f	0.2284
215	0x309e	0.1443
216	0x3173	0.1703
217	0xae07	-0.0942
218	0x302c	0.1304
219	0xb25e	-0.199
220	0x3196	0.1746
221	0xaa6c	-0.05017
222	0x3118	0.1592
223	0x2704	0.0274
224	0x3427	0.2595
225	0x201d	0.00803
226	0xb31c	-0.2222
227	0xaa04	-0.047
228	0x2d1d	0.0799
229	0xab26	-0.05585
230	0x32cb	0.2123
231	0xaffc	-0.12476
232	0xa2f3	-0.01357
233	0xb0ba	-0.1477
234	0x2d94	0.08716
235	0x332f	0.2245
236	0xb190	-0.1738
237	0x249f	0.01805
238	0xad58	-0.0835
239	0x326a	0.2004
240	0xa3ae	-0.015
241	0x2d33	0.08124
242	0x27e5	0.03084
243	0xae29	-0.09625
244	0xab7e	-0.05853
245	0xb3c5	-0.2428
246	0x3308	0.2197
247	0x34ab	0.2917
248	0xb181	-0.172
249	0xb07a	-0.1399
250	0x2b49	0.05692
251	0xae25	-0.096
252	0xabee	-0.06195
253	0xb055	-0.1354
254	0x31dd	0.1832
255	0xb2eb	-0.2162

WaterPotabilityDNN_v2/potability/MatMul f2 [1, 32]
0	0x35ae	0.355
1	0x370c	0.4404
2	0xb10e	-0.158
3	0xb285	-0.2037
4	0xb342	-0.2268
5	0xb571	-0.34
6	0xb5bc	-0.3584
7	0x3461	0.2737
8	0x3045	0.1334
9	0x33b1	0.2404
10	0x327e	0.2029
11	0x9df0	-0.0058
12	0x3049	0.1339
13	0x35db	0.366
14	0x34bd	0.2961
15	0xa55d	-0.02095
16	0x3047	0.1337
17	0xa416	-0.01596
18	0xa980	-0.04297
19	0x35d1	0.3635
20	0x3139	0.1632
21	0xb111	-0.1583
22	0x2e40	0.09766
23	0xb6c6	-0.4233
24	0xb695	-0.4114
25	0x3224	0.1919
26	0xb6bf	-0.4216
27	0x3533	0.325
28	0x32e1	0.215
29	0xb1e5	-0.1842
30	0x30b2	0.1467
31	0xb5c8	-0.3613
