water_potability_model.tflite (tflite, 34128 bytes, 9 tensors)

WaterPotabilityDNN_v2/potability/MatMul f4 [1, 32]
000000 c3 b5 b5 3e 9b 75 e1 3e 08 b5 21 be f1 a5 50 be
       0.35490236 0.44035038 -0.15791714 -0.20375802
000010 d1 44 68 be 6e 1c ae be c8 75 b7 be a9 2d 8c 3e
       -0.22682501 -0.34006065 -0.35832047 0.27378586
000020 33 9a 08 3e ed 2f 76 3e 3d b6 4f 3e 54 0b be bb
       0.13340072 0.2404172 0.20284362 -0.0057996903
000030 98 1a 09 3e 48 56 bb 3e 5d 95 97 3e 15 91 ab bc
       0.13389051 0.36589265 0.29606143 -0.020943204
000040 df de 08 3e 4f bb 82 bc fe f3 2f bd c4 2d ba 3e
       0.13366269 -0.015958456 -0.0429573 0.3636304
000050 b9 16 27 3e 6b 2f 22 be 48 08 c8 3d 6a bd d8 be
       0.16317262 -0.15838401 0.097672045 -0.4233201
000060 b3 9a d2 be 15 89 44 3e 2d d3 d7 be 99 6c a6 3e
       -0.4113365 0.19192918 -0.42153302 0.32504728
000070 b2 10 5c 3e bf a3 3c be 13 42 16 3e 0e fb b8 be
       0.21490744 -0.18421839 0.14673643 -0.3612904

WaterPotabilityDNN_v2/dense_3/BiasAdd/ReadVariableOp f4 [32]
000000 1a 69 73 ba 2d 54 40 bb 16 1c 70 3c ec 51 30 3d
       -0.00092853757 -0.0029347048 0.014655134 0.043046877
000010 e6 f7 43 3d e8 ec 42 3d 88 a4 d5 bb c2 09 dd bb
       0.047843836 0.047589213 -0.006519858 -0.006745548
000020 18 95 2e bc 01 24 7e bc b9 c9 9e 3c 46 ca 89 bd
       -0.010655664 -0.015511514 0.019383298 -0.06728034
000030 99 19 e4 3c a6 c2 98 3c 91 ae 8e 3c 3f 86 61 bb
       0.027844237 0.018647503 0.017417224 -0.0034412292
000040 46 5f ec bc 08 f8 2d bd f3 b5 2a bd 32 7f 6b bc
       -0.028854024 -0.04247287 -0.041677427 -0.014373587
000050 68 dc 76 bc 49 30 1f bb 8a 90 34 3c 5f e7 cb 3c
       -0.015067197 -0.0024290255 0.011020789 0.0248906
000060 bf e1 b8 3c 6e d3 69 bb 54 bf 2e 3d 41 a2 2f bc
       0.022568582 -0.0035679 0.042662933 -0.010719837
000070 2e f1 37 bd 72 57 19 bb b0 85 47 bd 3e ec ca 3c
       -0.04490774 -0.0023398069 -0.04871148 0.024770852

WaterPotabilityDNN_v2/activation/Relu;WaterPotabilityDNN_v2/batch_normalization/batchnorm/add_1 f4 [128]
000000 52 da d7 bb 64 86 af bd 11 e5 39 be cb bd 91 bc
       -0.006587305 -0.08570555 -0.18153788 -0.017790696
000010 ba de c4 bd 58 84 2c be 5a 58 bd 3c e5 ee 3f be
       -0.09612794 -0.1684736 0.023113418 -0.18743475
000020 e7 53 ae bd 9b a0 9c bc 8a 50 1d be 0f 44 cf 3d
       -0.08512097 -0.019119551 -0.15362754 0.10120403
000030 90 99 09 be ab bd da bd 85 17 0c bd 1c 12 1d bd
       -0.13437486 -0.106807075 -0.034202117 -0.03834735
000040 49 b8 87 3c 18 9a 70 3a b0 28 22 be 33 90 df 3c
       0.016567366 0.0009178235 -0.15835834 0.02729044
000050 ce c1 20 be 39 e8 3f be 48 8c d6 bc 50 9c 85 bd
       -0.1569893 -0.1874093 -0.026189938 -0.06523955
000060 7e 28 16 be d4 46 2c be 94 30 87 bd 93 61 ee bd
       -0.14663884 -0.16823894 -0.066010624 -0.116397046
000070 96 4a a8 bc 96 26 0c bd 60 52 00 bc ec ff 69 3d
       -0.020543378 -0.034216486 -0.00783214 0.05712883
000080 8c 91 2f be a4 b3 2c be 7c 6e 08 bd f6 58 04 be
       -0.17145365 -0.16865402 -0.03330849 -0.12924561
000090 d1 28 b4 3d f6 18 61 bc 77 43 b0 3c e2 b1 56 3d
       0.087968476 -0.013738861 0.021516545 0.052415736
0000a0 2a 2e b5 bd bf 07 60 be b9 a8 ab 3d c3 1f b5 3c
       -0.08846696 -0.21877955 0.08381791 0.022109872
0000b0 7f d7 8a bc b5 8a 54 3d 28 4d aa bc 44 81 7c bd
       -0.01694846 0.051890094 -0.020788744 -0.061646715
0000c0 97 ef ae bd 8d 21 07 be 62 5b 8a bc 05 b2 78 bd
       -0.08541792 -0.13196392 -0.016889278 -0.060716648
0000d0 7c 1b 09 be 86 03 31 be a2 d2 e5 3c ec 2c 96 bd
       -0.1338939 -0.172865 0.02805454 -0.07332787
0000e0 a2 76 9f 3d 8c 50 99 bd 38 cf 6f bd 9c f3 79 bd
       0.07786299 -0.07486066 -0.05854723 -0.06102334
0000f0 cc f4 0a be cb dc 5b be 28 dc 17 be 9b d2 37 bd
       -0.13569945 -0.21470945 -0.14830077 -0.044878583
000100 3c c0 fe bc 69 54 b7 bd c6 04 c3 3d c6 bd 48 be
       -0.031097524 -0.08951647 0.09522395 -0.19603643
000110 3f 78 61 be 69 24 0e be d5 42 3f be 26 47 08 be
       -0.22018526 -0.13881077 -0.18677838 -0.13308391
000120 0e 3a 40 bd 2c 12 dc 3a 6b 52 f2 ba e5 9f 14 be
       -0.046930365 0.0016790084 -0.0018487697 -0.1451412
000130 7f f8 75 bd 0a 49 23 be b3 58 4f bd 18 20 3f 3c
       -0.060051437 -0.15945831 -0.0506217 0.011665367
000140 fb a2 14 3d 76 40 52 bd 73 d8 07 be 31 20 12 be
       0.036288243 -0.051331006 -0.13266163 -0.14270093
000150 7b a7 57 3c d8 6f 82 bd 92 74 8a bc 22 1d 8a bd
       0.013162489 -0.06368989 -0.016901288 -0.06743838
000160 0d f9 97 3c ee db 62 3d b1 de 24 be e6 17 93 bd
       0.018551374 0.055385523 -0.16100575 -0.07182293
000170 75 46 6b be b5 53 52 bd a0 c5 80 bd 07 de 05 be
       -0.22976096 -0.05134936 -0.06287694 -0.13072978
000180 43 ef 3f be 63 7f ac bc 52 e0 36 3d 1d b6 99 bb
       -0.18743615 -0.021056836 0.044647522 -0.004690899
000190 b5 66 cb 3d 3e c6 21 be ec 71 06 3b 8d f9 1d be
       0.09931699 -0.1579828 0.002051468 -0.15427227
0001a0 38 a8 de bd f2 26 55 bd c8 06 d2 3d a3 18 c5 bd
       -0.10871929 -0.052039094 0.102552 -0.0962384
0001b0 8d 30 e4 bd 48 72 10 be 09 96 77 bd 1a 90 83 3c
       -0.11142073 -0.14106095 -0.06044582 0.016059924
0001c0 29 b1 00 be b5 f5 a4 bc eb e3 4c bd d9 7d b8 bd
       -0.12567581 -0.020136693 -0.050022047 -0.090083785
0001d0 b7 0f dd bd 54 38 1e be 32 90 21 be 68 a5 a0 bc
       -0.10794013 -0.15451175 -0.15777662 -0.019610122
0001e0 6c 2a 26 be 84 18 91 3c 48 c9 b7 bd 2b 26 2a be
       -0.1622712 0.017711885 -0.08973938 -0.16616122
0001f0 13 a7 92 bd 0e 94 fa bc 22 f9 cb bb b6 b4 0c be
       -0.07160773 -0.030588176 -0.0062247673 -0.13740811

WaterPotabilityDNN_v2/activation_1/Relu;WaterPotabilityDNN_v2/batch_normalization_1/batchnorm/add_1 f4 [128]
000000 4b 72 5a 3e e0 34 ce bd bc cc 61 3f d9 28 b9 3e
       0.21332662 -0.10068679 0.88203025 0.36163977
000010 44 b3 39 3f 56 a9 46 3f fa 24 20 3f 88 9b 80 3f
       0.7253916 0.77602136 0.6255642 1.0047464
000020 92 42 6e 3f a2 a9 03 3f e2 19 e0 3e 87 bf 13 be
       0.9307033 0.51430714 0.43769747 -0.1442853
000030 06 71 34 3f 7c 6e df be cf 5e 14 3f 87 4f d5 3e
       0.7048496 -0.4363898 0.57957166 0.41662237
000040 70 61 a7 3f 49 fb 5d 3f 8e b6 e8 3d d3 0b 86 bf
       1.307661 0.86711556 0.113629445 -1.0472358
000050 51 cd bc 3e 87 74 1c 3f b9 91 1d bd b1 56 9c 3e
       0.36875394 0.61115307 -0.03846905 0.3053489
000060 88 13 b5 3e f1 b6 38 ba e0 37 22 bf 89 13 1d bf
       0.35366464 -0.00070463034 -0.6336651 -0.61357933
000070 58 a2 60 3f dd e4 77 bf 6c 99 17 bf 4b f8 91 3c
       0.87747717 -0.9683359 -0.5921848 0.01781859
000080 1c c7 52 3f 73 de cb bd 3c b8 5b 3e 06 d9 76 3f
       0.82335067 -0.09954538 0.21456999 0.964249
000090 39 d4 ce 3c 0e bc 97 3f 3b 83 18 bf 35 e6 7a bf
       0.02524768 1.1854265 -0.5957524 -0.9800752
0000a0 26 8a 30 3e 02 69 12 bd ab a0 06 3f 27 ea 21 3f
       0.172402 -0.035744675 0.5258891 0.63247913
0000b0 9e 82 8b bf 92 27 98 be 82 c1 6e 3e f9 f7 84 bc
       -1.0899236 -0.2971769 0.23316005 -0.016231524
0000c0 f0 7e 94 bd c7 1d c6 bf 71 98 70 3f 50 c8 0c be
       -0.07250774 -1.5477837 0.9398261 -0.13748288
0000d0 38 75 26 3e 99 44 c5 3d 59 17 37 3f 8d 0a 65 3f
       0.16255653 0.096322246 0.7152 0.89469224
0000e0 95 bf 16 3f 59 08 22 3f ea 32 de 3d 91 9f 25 be
       0.5888608 0.6329399 0.10849555 -0.16174151
0000f0 43 90 02 be 1b e0 c5 bc e1 a7 c3 bc 38 4b 94 3d
       -0.12750344 -0.024154713 -0.023883762 0.07240909
000100 f2 47 2b 3e f6 48 e2 be f0 f1 66 be e9 c1 15 3d
       0.16726664 -0.4419629 -0.2255323 0.03656188
000110 9b 2b 4f be ab 31 05 bf be 02 30 3f e9 2c 83 3f
       -0.20231478 -0.5202891 0.68754184 1.024808
000120 16 26 54 3f 97 20 02 bd 31 3b 5d bf 32 53 5e 3e
       0.82870615 -0.03176936 -0.86418444 0.21711424
000130 7b ad 50 3e 2e 23 92 3f 32 13 8c 3f e3 4d 53 3f
       0.20378678 1.1416986 1.0943358 0.8254072
000140 78 e6 4c 3f 02 e2 47 3f 9d e0 df 3e 59 db 1a 3f
       0.8003917 0.78079236 0.43726054 0.6049095
000150 9f 3a fd 3d 8e 80 90 be 75 98 38 be 6e 55 0f 3e
       0.12364697 -0.2822308 -0.18026908 0.13997433
000160 7c 1c df 3e f5 2b 46 3e 86 00 04 3f 67 f6 37 3f
       0.4357642 0.19352706 0.515633 0.71860355
000170 97 72 45 bf 25 3b 85 3f 10 f9 04 bb 72 b9 d8 3d
       -0.77127975 1.0408674 -0.0020290054 0.10582246
000180 64 8e 91 bf 48 df 28 bd fc f3 ca 3d 29 76 9e 3e
       -1.1371579 -0.041228563 0.099098176 0.30949524
000190 ba a4 a9 3e 34 49 84 bc e5 17 8a bf e2 1d 4b 3f
       0.3313349 -0.016148187 -1.0788542 0.7934247
0001a0 22 9a 35 bf fd d5 fb 3e 2a 0f 26 3b da 03 71 3f
       -0.70938313 0.49186698 0.0025338628 0.941465
0001b0 8e 57 ca 3e 19 92 ce 3e 05 82 05 bf fd 79 1d 3d
       0.39519924 0.4034584 -0.5215152 0.038446415
0001c0 35 9e 2d 3f 95 5c c1 bc 8b 45 b9 be 67 9a ad be
       0.6781953 -0.023603717 -0.3618587 -0.33906862
0001d0 59 2d 32 3f 42 25 18 bf 45 32 f1 be 6a f2 06 bf
       0.69600445 -0.5943185 -0.47108665 -0.52713645
0001e0 9d cf e8 3c c3 72 aa bf 99 3d 49 3f 33 c0 83 bf
       0.02841931 -1.3316272 0.78609616 -1.029303
0001f0 3f ad 34 3f b8 37 3f 3e c6 ca a7 bf 58 6a 1a 3e
       0.7057685 0.18673599 -1.3108757 0.1507963

WaterPotabilityDNN_v2/activation_2/Relu;WaterPotabilityDNN_v2/batch_normalization_2/batchnorm/add_1 f4 [64]
000000 45 9d 56 3f ce 7b 72 3e b8 5c 15 3e 54 c2 46 bf
       0.83833724 0.2368004 0.1458615 -0.7764027
000010 6b e9 fb 3d 34 84 33 3e 30 6a 22 be 5a a8 71 3e
       0.1230038 0.175309 -0.1586082 0.23599377
000020 77 3f dc 3e 7e 10 cf 3e f8 70 c2 3d 95 5c 9b 3e
       0.4301717 0.4044227 0.09494203 0.30344072
000030 8a aa 48 3e cc 37 a1 3d 40 7d 1a 3e 07 fc af 3e
       0.19596305 0.078719705 0.15086842 0.3437197
000040 8e 1e 8a bd d4 e5 1a bd 76 9b 09 3f f4 12 14 3e
       -0.06744109 -0.037816837 0.5375284 0.14460355
000050 74 fe 8c bd b0 ef dd 3e 25 f7 55 3e 0c c3 d2 bd
       -0.068844706 0.4334693 0.2089506 -0.102911085
000060 47 f2 b7 3e 09 72 02 bf 12 9c 21 3e d5 32 34 3d
       0.3592703 -0.50955254 0.15782192 0.04399379
000070 e1 c6 bb bd 22 66 0d 3e d9 5e 60 3b a7 e5 8b be
       -0.091687925 0.13808492 0.003423622 -0.27323648
000080 db 88 a8 3e ab 17 df 3e 15 7f 47 3d 84 3e e8 3c
       0.32916912 0.43572745 0.04870518 0.028350122
000090 30 01 c9 3e 18 62 97 3e 33 89 79 3e 12 c9 f7 3c
       0.39258718 0.29567027 0.24368744 0.030247245
0000a0 13 cd 05 3f 09 10 4d 3e cc c4 cd be 5e 28 ff bd
       0.52266043 0.20025648 -0.40189207 -0.12458871
0000b0 5b 29 ab 3e e2 9b e9 3e 1a 32 b5 3e 98 2c 26 3e
       0.3342999 0.45626742 0.35389787 0.16227949
0000c0 8f 97 10 be 68 1a 41 3e 83 79 98 3d 1f b8 22 3d
       -0.14120315 0.1885773 0.074450515 0.039726373
0000d0 a6 5e d7 3e ed ff 8c 3d 85 b6 44 3e 7c 08 9c 3e
       0.420644 0.068847515 0.1921025 0.30475223
0000e0 43 16 60 3e ea 06 1a bf f9 db 89 be 94 fe c7 3d
       0.21883492 -0.601668 -0.26925638 0.09765354
0000f0 56 23 c0 3e b8 b4 f1 3e 64 87 67 3d 4b a6 04 bf
       0.3752696 0.4720819 0.056525603 -0.5181624

WaterPotabilityDNN_v2/batch_normalization/batchnorm/mul_1 f4 [128, 4]
000000 a2 60 32 3f 78 9a a6 3e 31 81 55 3f a9 1b 90 3c
       0.696787 0.32539725 0.83400255 0.017591314
000010 54 60 87 3f 26 62 11 bc 46 b6 50 3d cb 97 37 3d
       1.0576272 -0.008873498 0.05095508 0.044822495
000020 02 eb 8c bf 39 ef 08 3e 04 4a 23 3e ca ec cd 3d
       -1.1009219 0.13372506 0.15946203 0.100549296
000030 1a 86 6c 3f a9 da bb 3e eb 4c c5 3e 6b 2e e8 3e
       0.9239212 0.36690262 0.38535246 0.45347914
000040 f3 2c ed 3e 56 ba 70 bf 53 32 1f 3e 8d 57 3f 3f
       0.46323356 -0.94034326 0.15546541 0.74742967
000050 d9 c0 85 bf ab e5 02 bb 51 bc d0 3c ac 03 b8 3d
       -1.0449477 -0.0019973319 0.025480421 0.08985075
000060 27 4b fc 3e 58 fd a6 3f 43 6b 7d 3e ea 6e 77 3d
       0.49276087 1.3046064 0.24747948 0.06040851
000070 68 bb 35 bf 97 60 17 be fe 36 24 3e e5 53 61 3f
       -0.70989084 -0.1478294 0.16036603 0.8801864
000080 ac ee 28 3f 3f bb 63 3e de e1 5b 3f 58 c6 57 3e
       0.65989184 0.22239397 0.8589152 0.21071756
000090 4e b2 16 be bf 30 1b 3f ff 68 86 bf d4 2e 0b be
       -0.14716455 0.60621256 -1.0500792 -0.13592082
0000a0 39 ce 71 bf 6f 0b a0 3e 10 4d 71 3e cb ba 9d 3e
       -0.94455296 0.31258723 0.23564553 0.30806574
0000b0 a5 ac 85 be ab 4c 75 3d 57 2b 04 bf ca 9f 92 bf
       -0.2610828 0.05988757 -0.5162863 -1.1455014
0000c0 c4 40 90 3e db 95 06 3f f8 58 86 3f ce c2 90 3e
       0.28174412 0.5257241 1.0495901 0.28273624
0000d0 b4 b2 05 bf f6 88 53 3f b2 6c 49 be a1 c5 21 3f
       -0.52225804 0.8263086 -0.1967037 0.6319218
0000e0 69 43 ce be d1 1a 51 bf b0 58 8f 3e e2 fe 42 bf
       -0.40285805 -0.81681544 0.2799735 -0.7617017
0000f0 d6 24 47 3f 5c f6 03 be 5a f4 2f be 76 4a 36 3f
       0.7779058 -0.12886947 -0.17183056 0.7120737
000100 23 70 38 bc 18 2c 8b be f1 ec 8b bd cf 9d 8f bf
       -0.011257204 -0.27182078 -0.06832302 -1.1220034
000110 32 de 72 3f 7e 07 4c be c8 66 b2 bd 98 31 f9 3e
       0.94870293 -0.19924733 -0.0871101 0.4867065
000120 02 e9 88 bf af 3b 41 3e 11 09 2f 3e b7 ed 8d 3d
       -1.0696108 0.18870424 0.17093302 0.06930106
000130 c4 0e 55 3f fd 77 64 be 95 df f7 3e 16 c8 70 be
       0.83225656 -0.22311397 0.48412767 -0.23513827
000140 d0 f2 84 bf 3f 9f 4b 3e c0 b4 a4 3d 40 24 3c 3e
       -1.03866 0.19884966 0.08042288 0.18373203
000150 24 b0 44 bf 05 e5 8e 3e 41 d2 12 3f c1 dd 93 3e
       -0.7683127 0.27909103 0.5735207 0.28880122
000160 e2 34 54 3f 4f d5 30 3f ae c3 e4 be bd a2 f7 bd
       0.8289319 0.69075483 -0.44680542 -0.12091587
000170 71 36 3b 3f f9 e0 07 bf 51 93 0e bc 5c fc 3f 3f
       0.73129946 -0.53077656 -0.008702115 0.74994445
000180 7a 18 61 bf 02 93 d8 bc 19 de 4a be 5d ff 1c 3f
       -0.87927973 -0.026437286 -0.19811286 0.61327153
000190 ad 21 81 bf d6 72 96 3e f4 4b 9d 3e 81 6b 9b 3e
       -1.0088402 0.29384488 0.3072201 0.30355456
0001a0 d1 ab dc 3e 98 bc 5f bf 2a a1 06 3f b2 d6 90 be
       0.43099836 -0.87397146 0.52589667 -0.282888
0001b0 58 ef 79 3e 93 ed 3b 3f 21 57 04 3f ea 98 56 3f
       0.24407709 0.73409384 0.5169545 0.8382708
0001c0 5f 62 d6 3e 17 49 88 3e 18 ce 67 3f 7a e2 10 3f
       0.41871926 0.26618263 0.9054885 0.56595576
0001d0 0f bb 5f be 58 db 1a bf 47 ad 88 bf d4 e6 da 3c
       -0.21848701 -0.6049094 -1.067788 0.026721396
0001e0 36 c9 20 3f 34 50 7c 3e f5 2c 7b 3f 57 94 45 3d
       0.62807024 0.2463997 0.98115474 0.04823717
0001f0 09 fd 08 be d6 e1 9f bf d8 89 25 be 58 50 d5 be
       -0.13377775 -1.2490795 -0.16165864 -0.4166286
000200 74 8d 89 bf af bb ac 3d c2 c4 41 3d e6 59 44 3d
       -1.0746293 0.08434235 0.047306783 0.047937296
000210 06 65 3e bf 24 c6 bc be f0 bf 17 be 26 71 36 3f
       -0.743729 -0.3686992 -0.14819312 0.712664
000220 6e 64 33 3e 13 32 5f 3f 9b 6f 78 bf 91 1d 49 be
       0.1751878 0.8718578 -0.97045296 -0.19640185
000230 b1 a2 44 bf 34 31 c8 3d da 64 49 3f 35 26 80 3e
       -0.7681075 0.0977501 0.7866951 0.2502915
000240 d7 08 17 3f 2c fd 73 3e 2b b1 a6 be fc 1a 6d bf
       0.58997864 0.23827046 -0.32557043 -0.926193
000250 fe 86 6f 3f 37 fa 0f 3e 8b f9 00 3f 0a 1d a7 3e
       0.93565357 0.14060293 0.5038077 0.32639343
000260 bb ff 5f 3f 1f 69 2a be 96 47 10 bb 38 1e ef 3e
       0.8749959 -0.16641663 -0.0022015325 0.46702743
000270 19 a7 59 be 14 cc 05 bf 27 cd 2c bf 71 ed 62 bf
       -0.21255149 -0.52264524 -0.6750054 -0.88643557
000280 54 aa 14 bf 1f 02 59 bd e1 96 44 bf 36 bb b0 be
       -0.580724 -0.05298054 -0.7679272 -0.3451783
000290 52 49 62 bf 38 f2 8c 3e 90 c1 e7 3e 86 16 79 3e
       -0.8839313 0.27528548 0.45264864 0.24324998
0002a0 fb 61 02 be 77 b8 36 be d1 dd d9 bc 8a 06 a7 bf
       -0.12732689 -0.17843805 -0.026595028 -1.304887
0002b0 02 9b e6 bd d1 61 7e bf dd 08 03 be e9 86 59 bf
       -0.11260034 -0.99368006 -0.1279635 -0.8497148
0002c0 53 99 2f 3e e8 bb 9c bf a7 a4 7c be 1f 68 8d 3e
       0.17148332 -1.2244844 -0.24672185 0.276185
0002d0 9c 38 86 be ac b9 94 bf 6d 82 05 bf 89 dc d8 be
       -0.26215065 -1.1619163 -0.5215214 -0.42355755
0002e0 06 9d 0b 3f e1 7f d7 be 4d 3c 22 bf b4 fe 0d 3f
       0.54536474 -0.4208975 -0.6337326 0.5546677
0002f0 76 5c 68 3f 0a fc 14 3f c0 62 b6 3e 19 33 59 3e
       0.90766084 0.5819708 0.35622215 0.21210898
000300 34 2a e8 3e b4 0b 6e bf 46 c8 62 3d ab f7 3b 3f
       0.45344698 -0.9298661 0.055366777 0.73424786
000310 33 c0 49 bf f8 b4 ae 3e 79 b5 c7 be e5 97 f6 3e
       -0.788089 0.34122443 -0.3900564 0.4816276
000320 20 3b f5 be c2 9f 1a bf bb 87 b8 3e 49 f5 60 bf
       -0.4789667 -0.6040002 0.36041054 -0.87874275
000330 d2 af 28 3f 00 15 0e bf b2 b6 ac be 2a 99 39 3f
       0.6589328 -0.55500793 -0.33733135 0.72499335
000340 84 89 29 bf b5 68 4f be d8 01 41 be 22 c2 6a 3f
       -0.6622546 -0.20254786 -0.1884836 0.91702473
000350 0b ce 46 bf 2d 27 ca bd a0 e5 62 be fd 1d 0b 3f
       -0.77658147 -0.098707534 -0.22157907 0.54342633
000360 a0 5b 3b 3d 72 c0 b2 be 54 c8 07 3e ef b1 99 bf
       0.045741677 -0.3491245 0.13260013 -1.2007426
000370 f1 66 87 3f 07 1e ba 3d 07 c6 8c 3d 18 43 35 3e
       1.057829 0.090877585 0.06873708 0.17701375
000380 f8 81 c4 3e 05 a9 3e 3f a0 30 f8 3b 6c d0 7e bf
       0.38380408 0.74476653 0.007574156 -0.99536777
000390 0f bc 8a 3f a0 05 ab 3e bc a6 67 3e 19 14 21 3e
       1.0838641 0.3340273 0.22622198 0.15730323
0003a0 b4 ca 87 3f a7 a1 44 3e 6b cc 4f 3e d5 c2 56 3d
       1.0608735 0.1920229 0.20292823 0.0524319
0003b0 26 b7 19 3f b1 4f 82 3e 7f 7f 66 3f 3c b6 9a 3e
       0.6004509 0.25451425 0.90038294 0.3021716
0003c0 23 4c 6a bf a5 41 7a 3d 31 96 85 3d 7b 96 0f 3f
       -0.91522425 0.06109776 0.06522787 0.5608899
0003d0 94 6b 6c bf 2f ea 94 3e ef 79 a7 3e 7b ba 3e 3e
       -0.9235165 0.29084918 0.32710215 0.18625824
0003e0 0c f6 c5 be 38 57 3f bf da eb 5b 3f e0 fe 23 3f
       -0.3866428 -0.7474246 0.85906756 0.64060783
0003f0 50 b6 3a bf e1 65 51 bf fd 68 ac 3e 94 4a 09 bf
       -0.72934437 -0.8179608 0.3367385 -0.5362942

WaterPotabilityDNN_v2/batch_normalization_1/batchnorm/mul_1 i1 [128, 128] scale=0.0020342332 zero_point=0
000000 f4 e9 cf d5 f9 fc 3f 0d 0e 22 e2 2a 28 07 11 24
       -0.0244108 -0.046787363 -0.09967743 -0.08747203 -0.0142396325 -0.008136933 0.12815669 0.026445031 0.028479265 0.069163926 -0.061026994 0.0854378 0.081369326 0.0142396325 0.034581963 0.0732324
000010 3a c9 be fd bc e4 cf d8 ce d2 27 21 ea 2b 0e 16
       0.117985524 -0.11188283 -0.13425939 -0.0061027 -0.13832785 -0.05695853 -0.09967743 -0.081369326 -0.10171166 -0.093574725 0.07933509 0.067129694 -0.04475313 0.08747203 0.028479265 0.04475313
000020 e9 1b e1 f6 26 c4 10 14 08 01 01 2a 1c 01 18 e3
       -0.046787363 0.054924294 -0.06306123 -0.020342331 0.07730086 -0.12205399 0.03254773 0.040684663 0.016273865 0.0020342332 0.0020342332 0.0854378 0.05695853 0.0020342332 0.0488216 -0.058992762
000030 e6 14 0a 1e 2a 0a 2a c7 e4 ef d2 06 ea c0 34 27
       -0.052890062 0.040684663 0.020342331 0.061026994 0.0854378 0.020342331 0.0854378 -0.11595129 -0.05695853 -0.034581963 -0.093574725 0.0122054 -0.04475313 -0.13019092 0.105780125 0.07933509
000040 e6 d2 ea cc dd 00 ed f3 05 ff eb e7 03 fa 00 16
       -0.052890062 -0.093574725 -0.04475313 -0.105780125 -0.07119816 0.0 -0.03865043 -0.026445031 0.010171166 -0.0020342332 -0.0427189 -0.05085583 0.0061027 -0.0122054 0.0 0.04475313
000050 35 b8 32 be e6 12 15 e1 df f9 43 ff 03 2f c6 bf
       0.10781436 -0.1464648 0.10171166 -0.13425939 -0.052890062 0.0366162 0.0427189 -0.06306123 -0.067129694 -0.0142396325 0.13629362 -0.0020342332 0.0061027 0.09560896 -0.117985524 -0.13222516
000060 ec 3b 18 25 e2 cb 2c c7 e0 13 fc 24 ef 0e 00 11
       -0.040684663 0.120019756 0.0488216 0.07526663 -0.061026994 -0.10781436 0.08950626 -0.11595129 -0.06509546 0.03865043 -0.008136933 0.0732324 -0.034581963 0.028479265 0.0 0.034581963
000070 3f ff 27 eb 0f c6 29 c1 f2 0a ec fb fb dd 17 f5
       0.12815669 -0.0020342332 0.07933509 -0.0427189 0.030513497 -0.117985524 0.08340356 -0.12815669 -0.028479265 0.020342331 -0.040684663 -0.010171166 -0.010171166 -0.07119816 0.046787363 -0.022376565
000080 c4 a3 4e 2f cb c8 4e d0 24 c6 0a 45 e6 04 25 f3
       -0.12205399 -0.18918368 0.15867019 0.09560896 -0.10781436 -0.11391706 0.15867019 -0.0976432 0.0732324 -0.117985524 0.020342331 0.14036208 -0.052890062 0.008136933 0.07526663 -0.026445031
000090 15 01 2f b1 26 16 51 cf a8 f5 b5 2a d7 10 aa f4
       0.0427189 0.0020342332 0.09560896 -0.16070442 0.07730086 0.04475313 0.16477288 -0.09967743 -0.17901252 -0.022376565 -0.15256749 0.0854378 -0.08340356 0.03254773 -0.17494406 -0.0244108
0000a0 b4 1c 3d bd 40 32 03 d6 f4 40 c6 43 01 e9 a3 c7
       -0.15460172 0.05695853 0.12408823 -0.13629362 0.13019092 0.10171166 0.0061027 -0.0854378 -0.0244108 0.13019092 -0.117985524 0.13629362 0.0020342332 -0.046787363 -0.18918368 -0.11595129
0000b0 f8 5f b5 a4 36 c4 2f 35 2c f4 17 df ea 0e 2e eb
       -0.016273865 0.19325215 -0.15256749 -0.18714945 0.10984859 -0.12205399 0.09560896 0.10781436 0.08950626 -0.0244108 0.046787363 -0.067129694 -0.04475313 0.028479265 0.093574725 -0.0427189
0000c0 30 46 52 18 30 58 e2 f0 3a 1f 18 d3 c0 b8 50 3e
       0.0976432 0.14239632 0.16680712 0.0488216 0.0976432 0.17901252 -0.061026994 -0.03254773 0.117985524 0.06306123 0.0488216 -0.09154049 -0.13019092 -0.1464648 0.16273865 0.12612246
0000d0 d5 d6 d0 d5 02 f8 05 ef 14 06 1d 03 ff 5f d6 ca
       -0.08747203 -0.0854378 -0.0976432 -0.08747203 0.0040684664 -0.016273865 0.010171166 -0.034581963 0.040684663 0.0122054 0.058992762 0.0061027 -0.0020342332 0.19325215 -0.0854378 -0.10984859
0000e0 c6 c9 5f 3f d8 19 49 11 0d 12 fd 0d 07 05 e5 f6
       -0.117985524 -0.11188283 0.19325215 0.12815669 -0.081369326 0.05085583 0.14849903 0.034581963 0.026445031 0.0366162 -0.0061027 0.026445031 0.0142396325 0.010171166 -0.054924294 -0.020342331
0000f0 2f 4e ce c8 ca 42 d8 e3 2f bb fe cf e7 56 1c d6
       0.09560896 0.15867019 -0.10171166 -0.11391706 -0.10984859 0.13425939 -0.081369326 -0.058992762 0.09560896 -0.14036208 -0.0040684664 -0.09967743 -0.05085583 0.17494406 0.05695853 -0.0854378

WaterPotabilityDNN_v2/batch_normalization_2/batchnorm/mul_1 i1 [64, 128] scale=0.0026165594 zero_point=0
000000 16 de f9 da db 28 e6 15 fa fe 0d 29 c9 eb 0c f0
       0.057564307 -0.08896302 -0.018315915 -0.09942926 -0.096812695 0.10466237 -0.06803054 0.05494775 -0.015699357 -0.005233119 0.03401527 0.107278936 -0.14391077 -0.05494775 0.031398714 -0.04186495
000010 ec ee 14 da 0d d8 21 1b 14 d9 d7 e9 17 d0 e4 12
       -0.052331187 -0.04709807 0.052331187 -0.09942926 0.03401527 -0.10466237 0.08634646 0.070647106 0.052331187 -0.10204582 -0.107278936 -0.060180865 0.060180865 -0.12559485 -0.07326366 0.04709807
000020 3c 02 f2 e2 15 20 d8 f9 e2 16 39 e1 d3 d5 df 19
       0.15699357 0.005233119 -0.03663183 -0.078496784 0.05494775 0.0837299 -0.10466237 -0.018315915 -0.078496784 0.057564307 0.14914389 -0.08111334 -0.117745176 -0.11251205 -0.08634646 0.06541398
000030 f0 fa 2a dc f6 d0 dc ee d3 e7 ea ef 27 1d 13 e6
       -0.04186495 -0.015699357 0.1098955 -0.09419614 -0.026165593 -0.12559485 -0.09419614 -0.04709807 -0.117745176 -0.06541398 -0.057564307 -0.04448151 0.10204582 0.07588022 0.04971463 -0.06803054
000040 23 d5 cf 1d 27 01 fe f3 15 06 ec e6 e1 e5 0e eb
       0.09157958 -0.11251205 -0.12821141 0.07588022 0.10204582 0.0026165594 -0.005233119 -0.03401527 0.05494775 0.015699357 -0.052331187 -0.06803054 -0.08111334 -0.070647106 0.03663183 -0.05494775
000050 32 d6 de 1a f8 e6 e7 da ca fa 29 f2 ee 1f ee 0d
       0.13082796 -0.1098955 -0.08896302 0.06803054 -0.020932475 -0.06803054 -0.06541398 -0.09942926 -0.14129421 -0.015699357 0.107278936 -0.03663183 -0.04709807 0.08111334 -0.04709807 0.03401527
000060 e7 1c 09 0a 25 ee c7 12 e5 f7 30 02 c5 f5 fc ed
       -0.06541398 0.07326366 0.023549035 0.026165593 0.096812695 -0.04709807 -0.14914389 0.04709807 -0.070647106 -0.023549035 0.12559485 0.005233119 -0.154377 -0.028782154 -0.010466238 -0.04971463
000070 f4 22 1f c9 ee fe 0c 0b dd d1 00 d1 e4 1e df e4
       -0.031398714 0.08896302 0.08111334 -0.14391077 -0.04709807 -0.005233119 0.031398714 0.028782154 -0.09157958 -0.12297829 0.0 -0.12297829 -0.07326366 0.078496784 -0.08634646 -0.07326366
000080 14 ec f4 02 e5 de ef 0f fd e2 15 30 ef 12 fe 1c
       0.052331187 -0.052331187 -0.031398714 0.005233119 -0.070647106 -0.08896302 -0.04448151 0.039248392 -0.007849678 -0.078496784 0.05494775 0.12559485 -0.04448151 0.04709807 -0.005233119 0.07326366
000090 ee f0 25 fd e6 ea e9 15 24 04 18 f6 f8 f6 22 d8
       -0.04709807 -0.04186495 0.096812695 -0.007849678 -0.06803054 -0.057564307 -0.060180865 0.05494775 0.09419614 0.010466238 0.06279743 -0.026165593 -0.020932475 -0.026165593 0.08896302 -0.10466237
0000a0 09 0b 11 df 14 d5 17 1e ee f9 e6 e2 ee df f6 10
       0.023549035 0.028782154 0.04448151 -0.08634646 0.052331187 -0.11251205 0.060180865 0.078496784 -0.04709807 -0.018315915 -0.06803054 -0.078496784 -0.04709807 -0.08634646 -0.026165593 0.04186495
0000b0 df ff f6 18 e2 f3 f3 17 ed 1e 06 ee 02 0a 10 e4
       -0.08634646 -0.0026165594 -0.026165593 0.06279743 -0.078496784 -0.03401527 -0.03401527 0.060180865 -0.04971463 0.078496784 0.015699357 -0.04709807 0.005233119 0.026165593 0.04186495 -0.07326366
0000c0 13 f8 25 02 f8 fd 2a fe f3 00 fc f5 d2 ed e8 e2
       0.04971463 -0.020932475 0.096812695 0.005233119 -0.020932475 -0.007849678 0.1098955 -0.005233119 -0.03401527 0.0 -0.010466238 -0.028782154 -0.12036173 -0.04971463 -0.06279743 -0.078496784
0000d0 0f fb 03 e6 f1 1f 22 06 fe 22 f9 f9 10 e1 f8 dc
       0.039248392 -0.013082797 0.007849678 -0.06803054 -0.039248392 0.08111334 0.08896302 0.015699357 -0.005233119 0.08896302 -0.018315915 -0.018315915 0.04186495 -0.08111334 -0.020932475 -0.09419614
0000e0 e8 16 10 f4 00 18 e1 ed 22 15 ec 1e 1e 11 fe 14
       -0.06279743 0.057564307 0.04186495 -0.031398714 0.0 0.06279743 -0.08111334 -0.04971463 0.08896302 0.05494775 -0.052331187 0.078496784 0.078496784 0.04448151 -0.005233119 0.052331187
0000f0 03 fc 00 0f dd 17 ff fa eb fd fb ea f2 e3 02 17
       0.007849678 -0.010466238 0.0 0.039248392 -0.09157958 0.060180865 -0.0026165594 -0.015699357 -0.05494775 -0.007849678 -0.013082797 -0.057564307 -0.03663183 -0.07588022 0.005233119 0.060180865

WaterPotabilityDNN_v2/dense_3/MatMul i1 [32, 64] scale=0.002644006 zero_point=0
000000 52 f0 4d fe 00 08 c5 5d 51 1e 18 fa e3 43 c6 28
       0.21680848 -0.042304095 0.20358846 -0.005288012 0.0 0.021152047 -0.15599635 0.24589255 0.21416448 0.07932018 0.06345614 -0.015864035 -0.076676175 0.1771484 -0.15335235 0.10576024
000010 a1 ef a1 f5 37 fc 39 39 37 a6 f7 02 5b 32 88 08
       -0.25118056 -0.0449481 -0.25118056 -0.029084066 0.14542033 -0.010576024 0.15070833 0.15070833 0.14542033 -0.23796053 -0.023796054 0.005288012 0.24060453 0.1322003 -0.3172807 0.021152047
000020 d4 b4 d8 e8 eb 44 02 a1 28 32 44 1e 54 5b 03 5c
       -0.11633626 -0.20094445 -0.10576024 -0.06345614 -0.055524126 0.1797924 0.005288012 -0.25118056 0.10576024 0.1322003 0.1797924 0.07932018 0.2220965 0.24060453 0.007932018 0.24324855
000030 04 f3 c7 dd 3c b6 17 49 32 4e fe 1f f1 14 c4 a8
       0.010576024 -0.034372076 -0.15070833 -0.092540205 0.15864035 -0.19565643 0.060812138 0.19301243 0.1322003 0.20623246 -0.005288012 0.08196419 -0.03966009 0.05288012 -0.15864035 -0.23267253
000040 f4 17 91 57 a7 3b e0 61 16 48 9f 54 25 ad fc 25
       -0.03172807 0.060812138 -0.29348466 0.23002851 -0.23531653 0.15599635 -0.08460819 0.25646856 0.05816813 0.19036843 -0.25646856 0.2220965 0.09782822 -0.21945249 -0.010576024 0.09782822
000050 97 a8 b6 d7 f0 bc 40 1f 29 a0 49 52 37 e0 aa 2f
       -0.2776206 -0.23267253 -0.19565643 -0.10840424 -0.042304095 -0.1797924 0.16921638 0.08196419 0.10840424 -0.25382456 0.19301243 0.21680848 0.14542033 -0.08460819 -0.22738451 0.12426828
000060 2b 2e 27 18 9b 02 c5 1e e7 30 cf 9d 39 2e b9 e8
       0.113692254 0.121624276 0.10311623 0.06345614 -0.2670446 0.005288012 -0.15599635 0.07932018 -0.06610015 0.12691228 -0.12955628 -0.2617566 0.15070833 0.121624276 -0.18772443 -0.06345614
000070 3c 9e fd 2e b4 04 d2 f3 c5 db 46 2f 11 b5 eb b8
       0.15864035 -0.25911257 -0.007932018 0.121624276 -0.20094445 0.010576024 -0.121624276 -0.034372076 -0.15599635 -0.09782822 0.18508041 0.12426828 0.0449481 -0.19830045 -0.055524126 -0.19036843
000080 13 0f f8 4d c0 42 3c 2d fe 4f ad 22 51 c2 58 f2
       0.050236113 0.03966009 -0.021152047 0.20358846 -0.16921638 0.17450438 0.15864035 0.118980266 -0.005288012 0.20887648 -0.21945249 0.0898962 0.21416448 -0.16392837 0.23267253 -0.037016083
000090 a6 fd ed f1 02 39 d5 4d 9e 3d d6 fd f1 1b 30 d3
       -0.23796053 -0.007932018 -0.050236113 -0.03966009 0.005288012 0.15070833 -0.113692254 0.20358846 -0.25911257 0.16128436 -0.11104825 -0.007932018 -0.03966009 0.07138816 0.12691228 -0.118980266
0000a0 33 23 40 1e 5a 4d d7 02 16 f3 b7 22 31 09 ec af
       0.1348443 0.092540205 0.16921638 0.07932018 0.23796053 0.20358846 -0.10840424 0.005288012 0.05816813 -0.034372076 -0.19301243 0.0898962 0.12955628 0.023796054 -0.05288012 -0.21416448
0000b0 f5 e4 45 ad 66 07 23 e2 b6 e7 55 f0 ad 26 3b f8
       -0.029084066 -0.074032165 0.1824364 -0.21945249 0.2696886 0.018508041 0.092540205 -0.07932018 -0.19565643 -0.06610015 0.2247405 -0.042304095 -0.21945249 0.10047223 0.15599635 -0.021152047
0000c0 20 64 0a f5 0f a2 fa cb e2 b2 f2 fb ca 41 28 f0
       0.08460819 0.2644006 0.02644006 -0.029084066 0.03966009 -0.24853656 -0.015864035 -0.14013231 -0.07932018 -0.20623246 -0.037016083 -0.01322003 -0.14277633 0.17186038 0.10576024 -0.042304095
0000d0 3b ee 58 d1 ea 65 56 37 40 dc 31 b5 42 ed 3c 0a
       0.15599635 -0.047592107 0.23267253 -0.12426828 -0.05816813 0.2670446 0.22738451 0.14542033 0.16921638 -0.095184214 0.12955628 -0.19830045 0.17450438 -0.050236113 0.15864035 0.02644006
0000e0 62 03 ac ee 1e eb 50 d1 fb c8 21 55 be 07 e0 4c
       0.25911257 0.007932018 -0.2220965 -0.047592107 0.07932018 -0.055524126 0.21152048 -0.12426828 -0.01322003 -0.14806433 0.08725219 0.2247405 -0.17450438 0.018508041 -0.08460819 0.20094445
0000f0 fa 1f 0c dc ea a4 53 6e bf cb 16 dc e9 cd 45 ae
       -0.015864035 0.08196419 0.03172807 -0.095184214 -0.05816813 -0.24324855 0.21945249 0.29084066 -0.17186038 -0.14013231 0.05816813 -0.095184214 -0.060812138 -0.1348443 0.1824364 -0.21680848
